debug_models/tf_lite/dummy.tflite (tflite, 35504 bytes, 4 tensors)

mul_1 f4 [100]
00000000: a506 61bd 3ac1 44bd 3070 45bd 81e0 9abc
00000010: df44 1d3d 6af2 e6bc 6b4a b5ba c0ac 4dbd
00000020: abda f63c a174 67bd 418e 3dbd 68d6 383d
00000030: 2d96 acbc dc01 173d a5d6 4dbc e4d5 25bc
00000040: 2510 f6ba 2246 393d 9180 413c 34f0 34bc
00000050: bf36 1b3c 4c8b 923b e1d6 463d 7677 22bd
00000060: 1dba 66bd 339c abb9 1596 79bb 3dba 453d
00000070: d22b a53c 6b7a 57bd a171 4abd 9bba 3cbc
00000080: e497 4e3d d8a2 3d3b 7c73 103c f631 8f3c
00000090: 4b62 45bd da0e 663d 2515 d7bc 6a17 bc3b
000000a0: 9496 eebb 9c7d 483d 6a12 cd3c 9009 1dbd
000000b0: 0198 eabc 4378 b9bc 3329 2dbd 046f 4b3d
000000c0: a41b b83c 1c06 d03c 77b0 483d 8966 ffbc
000000d0: b62a ae3c 0f15 5cbd 7d81 80bc e002 f4bb
000000e0: a46e 2c3d cb10 453d 11e3 183c 5a3c 663d
000000f0: 2be4 87bc 0728 ad3b cf9e ac3c 73e7 dabc
00000100: 64e4 d9bc c72e eb3b f236 ab3c ea8b 1dbd
00000110: 3f5d 553d 599e c4bc 5352 443d 7980 37bd
00000120: 20b9 1ebd 7be0 023d f345 99bc 6038 2b3d
00000130: 685d 2cbc b0d8 0cbd cf8a 193d 0243 6b3d
00000140: 24bf 67bd 4ad1 5b3b 270f 663d aa34 88bc
00000150: bba0 44bd 5f67 5c3d d674 083c 54a1 263d
00000160: 258f e4bc 0bb7 e23c fb4e d23c 3bb1 05bd
00000170: 9d05 91bc 935f 18bd 6c5c 303d dc26 0a3c
00000180: ca9f 393d 5a54 bd3c 58e9 473d e699 e43c
-0.054937977 -0.048035838 -0.048202693 -0.01890588 0.03839576 -0.028191764 -0.0013831382 -0.050213575
0.030133566 -0.05650771 -0.046278242 0.04512635 -0.021067703 0.036867008 -0.012563382 -0.010121796
-0.0018773122 0.0452329 0.011810438 -0.011043597 0.009473502 0.004472172 0.04854477 -0.039664708
-0.056329835 -0.0003273204 -0.003808384 0.048273314 0.020162497 -0.05260698 -0.04942477 -0.0115191
0.050437823 0.0028936174 0.008816596 0.017479878 -0.048189443 0.056166507 -0.0262552 0.005740096
-0.007281134 0.048947915 0.025033195 -0.038339198 -0.028636934 -0.022640353 -0.04227562 0.04966642
0.022474118 0.025393538 0.048996415 -0.031176822 0.0212606 -0.05373102 -0.015686745 -0.007446632
0.042097703 0.04811172 0.009331481 0.0562099 -0.016588291 0.0052843126 0.02107182 -0.026721692
-0.026598163 0.007177207 0.020900223 -0.03846351 0.05209088 -0.024001287 0.047930073 -0.044800255
-0.038750768 0.031952363 -0.018710112 0.04180181 -0.010520317 -0.034386337 0.037485894 0.05743695
-0.05657877 0.0033541494 0.056166794 -0.016626675 -0.048004847 0.05380952 0.008328637 0.0406812
-0.027900288 0.027675172 0.025672426 -0.032639723 -0.017702872 -0.03720052 0.04305689 0.008432116
0.045318402 0.023111511 0.04880652 0.027905416

mul_3 f4 [10]
00000000: 8d28 00bd fda5 443d 67be ad3b 17ff 83bd
00000010: 0008 fe39 4339 6b3d aa03 07bd 53df 313d
00000020: 9d0a 0dbd 3351 c3bd
-0.031288672 0.04800986 0.0053022387 -0.06445139 0.00048452616 0.057427656 -0.03296248 0.04342587
-0.03443395 -0.09536972

MatMul i1 [100, 300] scale=0.00045459485 zero_point=0
00000000: 7a27 d74b 7d9f 31b4 0725 afd2 fc1e d01e
00000010: 82d0 bee3 1fae 92c0 116e e5d4 41db b19d
00000020: 180c b0b5 ce1a 2596 d9db 2434 4dbf ec05
00000030: c26c 5692 2956 dc0f a1ca 20b3 d404 fd91
00000040: 8cd2 627e c367 13f4 2755 b409 6d6b 34e9
00000050: 0b6f 835d c3f9 ee26 173a 6851 65b6 8ef3
00000060: eb4c 0241 d2bb 703d bc6d 3f23 f1aa 5bca
00000070: 37ed a273 1d1e b3d2 6977 e939 6145 4cdd
00000080: 4698 d6b9 2fa0 6cf3 ca16 9a5c 55b5 86a1
00000090: ccd1 02a8 75c5 f2f1 90cf 5fb1 e235 fd2e
000000a0: 0978 345c 78a9 e51a d664 9c6d 6cb2 d553
000000b0: 614a 3e20 7ea9 0226 22c9 b25a b8d4 3806
000000c0: 561d a973 0298 d122 40fb 1362 6029 5b96
000000d0: 0a71 3d2d cf68 061d ce20 4695 8d8a c16a
000000e0: 299f cbf2 05f8 467c db22 9576 876f 2471
000000f0: e78a 8e2e c8ac c344 ddac 14ab 9f9d 3ffb
0.055460572 0.017729199 -0.01863839 0.034094613 0.056824356 -0.0440957 0.022275148 -0.034549206
0.003182164 0.01682001 -0.03682218 -0.020911362 -0.0018183794 0.013637845 -0.021820553 0.013637845
-0.05727895 -0.021820553 -0.03000326 -0.013183251 0.01409244 -0.03727678 -0.050005432 -0.02909407
0.0077281124 0.050005432 -0.01227406 -0.020002173 0.029548666 -0.01682001 -0.035912994 -0.04500489
0.010910276 0.005455138 -0.036367588 -0.034094613 -0.022729743 0.011819466 0.01682001 -0.048187055
-0.017729199 -0.01682001 0.016365414 0.023638932 0.035003804 -0.029548666 -0.009091897 0.0022729742
-0.02818488 0.04909624 0.039095156 -0.050005432 0.01863839 0.039095156 -0.016365414 0.0068189227
-0.04318651 -0.02454812 0.014547035 -0.035003804 -0.020002173 0.0018183794 -0.0013637845 -0.05046003
-0.052733004 -0.020911362 0.044550296 0.05727895 -0.027730286 0.04682327 0.008637302 -0.005455138
0.017729199 0.038640562 -0.034549206 0.0040913536 0.04955084 0.04864165 0.023638932 -0.010455681
0.0050005433 0.05046003 -0.056824356 0.04227732 -0.027730286 -0.003182164 -0.008182707 0.017274603
0.010455681 0.026366502 0.047277864 0.03682218 0.04591408 -0.03364002 -0.051823813 -0.005909733
-0.009546492 0.034549206 0.0009091897 0.029548666 -0.020911362 -0.031367045 0.050914623 0.027730286
-0.03091245 0.04955084 0.028639475 0.01591082 -0.0068189227 -0.039095156 0.04136813 -0.02454812
0.025002716 -0.008637302 -0.042731915 0.052278407 0.013183251 0.013637845 -0.035003804 -0.020911362
0.047732458 0.05409679 -0.010455681 0.025911907 0.0440957 0.031367045 0.034549206 -0.01591082
0.03182164 -0.047277864 -0.019092984 -0.032276236 0.021365957 -0.043641105 0.04909624 -0.005909733
-0.02454812 0.010001087 -0.046368673 0.041822724 0.038640562 -0.034094613 -0.055460572 -0.04318651
-0.023638932 -0.021365957 0.0009091897 -0.040004347 0.053187598 -0.026821095 -0.006364328 -0.0068189227
-0.050914623 -0.022275148 0.04318651 -0.035912994 -0.013637845 0.024093527 -0.0013637845 0.020911362
0.0040913536 0.05455138 0.023638932 0.041822724 0.05455138 -0.039549753 -0.01227406 0.011819466
-0.019092984 0.045459487 -0.045459487 0.04955084 0.04909624 -0.035458397 -0.019547578 0.03773137
0.0440957 0.03364002 0.02818488 0.014547035 0.05727895 -0.039549753 0.0009091897 0.017274603
0.015456225 -0.025002716 -0.035458397 0.040913537 -0.03273083 -0.020002173 0.025457311 0.002727569
0.039095156 0.013183251 -0.039549753 0.052278407 0.0009091897 -0.047277864 -0.021365957 0.015456225
0.02909407 -0.0022729742 0.008637302 0.044550296 0.043641105 0.01863839 0.04136813 -0.048187055
0.0045459485 0.051369216 0.027730286 0.020456769 -0.022275148 0.047277864 0.002727569 0.013183251
-0.022729743 0.014547035 0.03182164 -0.04864165 -0.052278407 -0.05364219 -0.028639475 0.048187055
0.01863839 -0.0440957 -0.024093527 -0.006364328 0.0022729742 -0.0036367588 0.03182164 0.05636976
-0.01682001 0.015456225 -0.04864165 0.05364219 -0.055005975 0.05046003 0.016365414 0.051369216
-0.011364872 -0.05364219 -0.051823813 0.020911362 -0.025457311 -0.03818597 -0.027730286 0.03091245
-0.01591082 -0.03818597 0.009091897 -0.038640562 -0.0440957 -0.04500489 0.028639475 -0.0022729742

MatMul_1 f4 [10, 100]
00000000: 8bf6 a13d 205e c9bc 8d3b c0bc b3ec 38bd
00000010: 4061 143c badf 583d 9aed 563c a7b5 a8bd
00000020: 03e1 0d3d 2de2 3a3d 7a37 af3c 1565 bd3d
00000030: e7de a1bd 4313 023d 2b38 a43d a533 b13d
00000040: 1a99 233d 1afa 44bd 8dbf 13bd 534f f33c
00000050: 604c aebc d58c 9cbd 5af9 7bbd 2da4 c03d
00000060: 9551 803d 10eb 06bd 1a0b 0dbc 47fd c83d
00000070: 2a19 553d 7875 c33d 22c1 bf3d dde5 453d
00000080: 4d04 b7bd c308 4fbd 7a25 813d aa53 00bd
00000090: a78f 60bc 7a1d 923d e709 22bc 00ad c23c
000000a0: 00ad ba3c 67a5 7c3c 5391 fcbc adea b73c
000000b0: f036 5d3d faed 0fbd faa8 b9bd f3af 66bd
000000c0: fa67 81bd c863 a2bd abf3 94bd e036 33bd
000000d0: fd1c be3d 8357 053d 3311 833a 803f 80bd
000000e0: 80f6 94bd 4d34 d1bc a096 013d fa36 33bd
000000f0: 777a 943d 27f2 4b3d bdd1 633d 7736 8b3d
00000100: d3e5 d1bc ea35 6ebd cdf9 9cbc 279f 3dbc
00000110: f03b 4e3d 3566 903d 5a58 e73c fae0 36bd
00000120: 978c 4b3d a74e 57bd 48c1 c3bd dd88 88bd
00000130: 5a45 723c 4355 c53d a509 8c3d 277b 10bd
00000140: fa1d a4bc 208d f03c 6051 8dbd 2d94 8b3c
00000150: 87bc 983d e790 d53c 7aae 6cbd 271a 533d
00000160: f8be 8b3d fb20 b63d eaba 8dbd 27a5 01bd
00000170: 3355 cd3a c071 3e3c 606c 563d d385 5c3d
00000180: 8760 6ebd f35e 713c 73d7 293d 9d71 84bd
00000190: 539f a93d 3bba a9bd 9b60 b53d 4d5c 4cbc
000001a0: 07e6 9fbc db86 a03d 07be 1a3d d352 1bbd
000001b0: 7306 0bbd e701 55bd fd1e 18bd f316 b43c
000001c0: e75d 40bc a332 6cbd b324 b0bd 8d0f 0b3d
000001d0: edbc 7dbd 07d3 0f3d 7ade 313d 27be 49bd
000001e0: 3333 bdb8 3311 433c ef56 c9bd e703 76bc
000001f0: 7a9b 68bd 5079 423d b3f9 eebc ef89 86bd
00000200: 3730 23bd faba 22bd 07d7 b33d 5d87 11bd
00000210: 9ac5 db3c c5b5 b6bd b3d1 a03d ed33 ac3d
00000220: f052 113d 1f6d bc3d 376d 463d 4d72 eb3c
00000230: 3a2b 953c ddcc 4a3d 7d1c 51bd 5073 003d
00000240: a320 803d 7b24 8bbd 6aea a93d b397 d2bc
00000250: bb7d c6bd 5a4f 8cbd 8d2c 633c e0cd 0dbd
00000260: 5ab2 7f3d ade3 2ebd 5506 9a3d 87ae 093d
00000270: aa4f 643d 93cf b33c a2f0 b5bd 0d53 823c
00000280: a7f8 5ebd 6a81 c73d 333b a73d 3a48 723d
00000290: 0b4f 8bbd ca6a 6b3d 5004 14bd 7a02 22bd
000002a0: 406f 0dbc fa30 b1bd ad4d a63c a21e cb3d
000002b0: 1377 213d f823 8a3d cb6b 923d 3bad a1bd
000002c0: e7e7 803d 9f56 b83d 609b b73c b542 b43d
000002d0: 6759 2d3c 935a 8cbd e5e6 c13d 0d20 fb3c
000002e0: 80a3 abbc baa8 05bd dde9 c7bd 8005 70bd
000002f0: 6b8e a83d cd6b efbc 5a4f afbc 95df 983d
00000300: 3a49 e9bc da2a 303c 33a4 16bd 2d56 8b3d
00000310: 9d6d 853d 2728 53bd 9a19 7cb8 38e8 8bbd
00000320: cd58 6f3d 7f18 ca3d 2320 36bd 1296 8e3d
00000330: 273c 86bd 75d9 bdbd 5002 4dbd ad40 b5bc
00000340: 087b a43d 9b33 aa3d 7b9c b5bd ed22 babd
00000350: 8d43 123d 03ba 4dbd 805b 413d 47b1 8f3d
00000360: c395 41bd 3381 b03d 60ad e0bc f7eb b93d
00000370: 337e 523b 200e c53c 3d88 5b3d 734f 9e3d
00000380: 4000 bb3c 3313 623c b388 7a3c a3f0 243d
00000390: b028 5c3d baac 9d3c 80c2 373d 5a05 bf3d
000003a0: 53db 3d3d 5266 8fbd 4d1c b63c 607c 5ebd
000003b0: 8aac 65bd dd42 4b3d 33b2 40bc 474f 233d
000003c0: 6292 a73d 7fdb 913d 328b a73d dd0d 813d
000003d0: d7b9 c5bd ea7e ab3d 6dca bdbc e021 86bc
000003e0: aaf8 9ebd b3af 383c ad6d a33d ad36 ee3c
000003f0: 9afa 6f3b ca2e 643d 62c7 823d 7320 3abd
0.079083525 -0.024581015 -0.023465896 -0.04514761 0.009056389 0.052947737 0.013118172 -0.082377724
0.034638416 0.045625854 0.021388758 0.092477955 -0.079038434 0.03175665 0.08018526 0.086524285
0.03994093 -0.048090078 -0.03607135 0.02970091 -0.021276653 -0.07644049 -0.061517097 0.09406314
0.062655605 -0.032939017 -0.008608604 0.09813934 0.05202595 0.0954389 0.09363009 0.048314918
-0.08936367 -0.050545465 0.06305976 -0.03132979 -0.013706124 0.071345285 -0.009890056 0.023764133
0.022787571 0.015420294 -0.030831015 0.02245077 0.05400747 -0.03513906 -0.09065433 -0.056320142
-0.0631866 -0.07929188 -0.072730385 -0.043753505 0.09282873 0.03255416 0.0009999633 -0.06262112
-0.07273579 -0.025537634 0.031637788 -0.0437536 0.07249921 0.04979148 0.055619944 0.06797498
-0.025622284 -0.058156885 -0.019162083 -0.011573589 0.05035013 0.070507444 0.028240371 -0.044648148
0.049694624 -0.052565243 -0.0955835 -0.066667296 0.0147870425 0.09635403 0.06837777 -0.035273697
-0.020033825 0.029364169 -0.06900287 0.01703843 0.07457834 0.026070071 -0.05778358 0.051538613
0.06823534 0.08893009 -0.06920417 -0.031651642 0.001566565 0.0116238 0.05234945 0.053838562
-0.058197524 0.01473211 0.041465234 -0.064669825 0.08282342 -0.08287474 0.08856317 -0.012473178
-0.019518865 0.07838222 0.03777888 -0.037920784 -0.033941697 -0.052003767 -0.037138928 0.0219836
-0.011741138 -0.05766548 -0.0860075 0.033950377 -0.06194775 0.03511336 0.04342506 -0.04925361
-9.021759e-05 0.011905956 -0.098310344 -0.015015579 -0.0567889 0.047478974 -0.0291718 -0.065692775
-0.039840903 -0.039729096 0.087812476 -0.035529483 0.026827622 -0.089213885 0.07852497 0.084083416
0.035479486 0.09200501 0.048444 0.028741026 0.018209089 0.04951178 -0.05105256 0.03135997
0.06256225 -0.067940675 0.08296664 -0.025707101 -0.0969195 -0.068510726 0.013865602 -0.034620166
0.06242595 -0.042697597 0.07520739 0.033613708 0.055740036 0.021949565 -0.08883788 0.015908742
-0.054436352 0.09741481 0.08165588 0.059150912 -0.068021856 0.05747489 -0.036136925 -0.039553143
-0.008632481 -0.0865192 0.02030071 0.09917952 0.0394202 0.06745142 0.07149466 -0.07894369
0.06294232 0.09000897 0.022412956 0.08801786 0.010580397 -0.06853213 0.09467868 0.030654931
-0.020951986 -0.032631613 -0.09761403 -0.058598995 0.08230289 -0.029226208 -0.021400142 0.0746452
-0.0284773 0.010752404 -0.036777686 0.06803546 0.06515048 -0.051551964 -6.0105325e-05 -0.068314016
0.058434296 0.098679535 -0.04446424 0.069622174 -0.06554442 -0.09269992 -0.050051033 -0.022125566
0.08031279 0.08310624 -0.08867737 -0.09088693 0.035708953 -0.050226223 0.0472064 0.07016235
-0.047261965 0.08618393 -0.027426422 0.0907821 0.0032118678 0.024054587 0.053596724 0.077299975
0.022827268 0.013798523 0.015291381 0.04026855 0.05374974 0.019247402 0.044863224 0.093271926
0.046351742 -0.07001938 0.022230292 -0.054317832 -0.05607275 0.049624313 -0.011761236 0.039870527
0.08182217 0.07121944 0.08180846 0.06301472 -0.09654587 0.08373816 -0.023167813 -0.016373575
-0.07762273 0.011272359 0.07979903 0.029078806 0.0036617876 0.055708684 0.063856855 -0.045441102
