debug_models/onnx/debug_conv.onnx (onnx, 5372 bytes, 8 tensors)

0.bias f4 [32]
000000 4c 1d 21 be 69 e4 06 3e 57 e5 38 3d 93 41 1c be
       -0.15733832 0.13173069 0.04514059 -0.1525939
000010 7c d7 51 bd 3f ff 1a be 98 79 1a be ea 67 2e be
       -0.051230893 -0.15136431 -0.15085447 -0.17031828
000020 18 50 14 3c 0d 2f 80 ba 5f 7b 51 b9 40 82 13 3e
       0.009052299 -0.0009779647 -0.00019977753 0.14405155
000030 8c 0d de bd 48 f8 19 bd 3d 09 ba 3d 5f 73 4f bb
       -0.108424276 -0.037590295 0.09083793 -0.003165446
000040 67 c5 20 bd ed f5 bd bc f0 25 7e bd 26 20 58 3d
       -0.039250758 -0.023188556 -0.0620479 0.052765034
000050 64 38 21 3e 2f c6 89 bc 84 4e 7d 3d 2e d9 af 3d
       0.15744168 -0.016818134 0.061842456 0.085863456
000060 6a 5b 36 be c1 c4 33 be 12 b6 0d bd 90 04 09 be
       -0.17808309 -0.17555524 -0.034597464 -0.13380647
000070 d9 48 ac 3c 78 f4 24 be 4d 3f d4 bc 7b f8 aa bd
       0.02103083 -0.16108882 -0.02590909 -0.08348175

0.weight f4 [32, 3, 3, 3]
000000 aa 3c 47 3b 8c 6b f5 bc 5e 24 17 3e ad db 80 bb
       0.0030401149 -0.029958509 0.14759967 -0.0039324374
000010 45 e6 29 3e 01 ce 96 bd 18 b6 0c 3e 52 57 6f 3d
       0.16591747 -0.07363511 0.13741338 0.058432885
000020 b4 bd dd 3c 6d 79 5c 3d 06 0a 3f 3e 64 97 d5 bd
       0.027067997 0.05382674 0.18656167 -0.10429266
000030 77 41 a2 3b 66 07 3b be 52 4c d1 bd c1 a9 26 bd
       0.0049516517 -0.18264541 -0.10219635 -0.040689234
000040 c5 65 84 3d 09 5a ce 3d 55 3a 07 bd bd 9f 14 be
       0.064647235 0.100757666 -0.033014614 -0.1451406
000050 0a 74 23 3c e3 88 62 bd 54 91 16 be 23 a3 f8 bb
       0.009976396 -0.055306327 -0.14703876 -0.007587807
000060 a3 64 94 3d 17 a1 3d be e5 d4 ad 3d a7 a6 32 be
       0.072457574 -0.18518482 0.08487872 -0.17446385
000070 0e 65 6b bd ac 38 30 3e 92 67 30 be f8 dd 0f 3e
       -0.05746942 0.17209119 -0.17227009 0.14049518
000080 be 57 19 3e bf 53 43 be e2 40 b5 bd 24 6e 3f 3d
       0.14974877 -0.19074915 -0.08850266 0.046735898
000090 f6 a4 37 3c 42 47 ba bd 99 a3 93 bd a3 52 8c 3c
       0.011208763 -0.090956226 -0.07208938 0.017129248
0000a0 40 aa 0a 3e 57 22 f8 bd d6 e8 32 bd 6f 49 8a bd
       0.13541508 -0.12115925 -0.04367908 -0.067522876
0000b0 c3 91 23 3e 61 5c 00 3e 2f 65 88 3d 0d 4f 20 3e
       0.15973572 0.1253524 0.06659924 0.15655155
0000c0 7b 79 87 3d 72 67 aa 3d 6c ee 43 be 76 14 91 3c
       0.066149674 0.08320512 -0.1913392 0.017709952
0000d0 bf e0 9f bd 8d 12 ce 3d ab 04 8f 3d 09 3c ce bc
       -0.07806539 0.10062132 0.06983312 -0.025175111
0000e0 06 d6 f4 3d bb 79 62 3d b0 c5 35 be de 00 98 3d
       0.11954884 0.055291872 -0.17751193 0.074220404
0000f0 d1 51 19 3e dc 18 24 3e 7f 7b 8c bd 3c 7c 6d 3c
       0.14972617 0.16025108 -0.068594925 0.014494952
000100 7b e6 e8 3d 0f 04 34 be da af 1e be 10 3e 84 3d
       0.11372086 -0.17579673 -0.1549677 0.0645715
000110 90 8d 93 3d 93 61 bc bd bd 43 76 3d 9a 8b fe 3b
       0.07204735 -0.09198298 0.060123194 0.0077681066
000120 7f 09 87 bd 0a 53 00 bd c6 00 13 be b5 ba 8e 3d
       -0.06593608 -0.031329192 -0.14355764 0.06969205
000130 b2 a2 bc bd 10 6b f1 bd a9 a0 20 3e b8 c2 66 bd
       -0.09210719 -0.11787999 0.15686287 -0.056338042
000140 6f 4f 41 bd 67 5e 40 be 8c e3 a4 bd ca f7 84 bd
       -0.047194894 -0.18786012 -0.080512136 -0.064925745
000150 aa c8 03 be 0a ff 8e 3d ca 4e 69 bd d0 07 16 be
       -0.12869516 0.069822386 -0.056959905 -0.14651418
000160 e4 78 b0 bd de b9 d6 bd 17 cc 8b bd da da 1f bd
       -0.08616808 -0.1048467 -0.068260364 -0.039027072
000170 bc e2 2e 3e bd 45 15 3e a6 29 1f be 59 3b 30 be
       0.1707868 0.14577384 -0.15543231 -0.1721014
000180 5f 78 10 be 95 e4 d8 3d a1 39 1c 3d 11 57 a9 3d
       -0.14108418 0.105904736 0.038140897 0.0826856
000190 ff 5b c9 3d 64 c0 ca 3d 56 e9 91 bd 14 28 0d 3e
       0.09832 0.09899977 -0.071245834 0.1378482
0001a0 bf fb 24 3e 4e c3 3e 3e fb c7 fc 3d 6b 19 7c 3d
       0.16111659 0.1862919 0.12342831 0.061547678
0001b0 ad 0c df 3d f7 3d 44 bd 5a a3 89 bc 87 32 1a 3e
       0.108910896 -0.047910657 -0.016801525 0.15058337
0001c0 61 30 f3 bd ee 79 d8 3c 0d 48 6c bd 70 0f 9e 3d
       -0.11874462 0.026425328 -0.0576859 0.07717788
0001d0 88 1c bf bd 42 11 34 3d 3a 5b 17 bd bf ec 09 be
       -0.09331614 0.04396177 -0.036952235 -0.13469218
0001e0 1e 42 e6 bd a0 b6 6e 3d 6c 1c 63 3c 17 32 d5 bd
       -0.112430796 0.058279634 0.013861757 -0.104099445
0001f0 7c 75 be bd 5a d4 3b 3e 26 68 84 3d 78 dd 8e 3d
       -0.09299752 0.18342724 0.06465177 0.069758356
000200 31 86 0c 3e ef 9d 0d 3e c1 e7 ff bd b1 0a 5f bc
       0.13723065 0.13829778 -0.124953754 -0.013613389
000210 91 08 3a bc d6 ca e7 3d df 7b b0 3d 5e 25 d4 3c
       -0.011354581 0.11317985 0.086173765 0.025896724
000220 46 75 1f 3e a2 e3 91 ba 34 45 60 3d 28 40 89 3d
       0.1557208 -0.0011130462 0.054753497 0.0670169
000230 ca 6a 01 3e e4 26 c3 3b 21 2b cb 3d 9c 06 39 3d
       0.12638393 0.005955564 0.099203356 0.04517232
000240 33 7a 0c 3e ef f5 0c be cc 1a c8 3d 23 ec b6 3d
       0.1371849 -0.13765691 0.09770736 0.08931758
000250 54 70 34 be 9c 73 c0 3c 9d 28 5b 3d 4f 47 25 3b
       -0.17620975 0.023492627 0.05350553 0.0025219505
000260 dd 4c 65 3d 11 2e f3 3d 35 31 51 3d 16 b4 c3 bd
       0.055981506 0.11874021 0.051072318 -0.09555833
000270 f5 27 ad bd d7 c2 18 3e 97 de f6 3d cf 14 27 be
       -0.08454887 0.14918076 0.120541744 -0.16316532
000280 cb 5a a5 3c 06 ff 0c bd 49 31 39 3d a6 3f 89 3d
       0.020184895 -0.034422897 0.045213018 0.06701593
000290 a2 5b d7 bd 91 61 19 be 30 d5 86 3d 2f a9 3d be
       -0.105155244 -0.14978625 0.06583631 -0.1852157
0002a0 a4 35 ab bc a5 89 2a be ae 62 42 be ff 7a 12 3d
       -0.020899601 -0.1665407 -0.18982956 0.03576183
0002b0 b1 a8 a2 bd a2 46 2c be e3 5f df 3d fe a9 2e 3e
       -0.079423316 -0.1682382 0.10906961 0.17057034
0002c0 4c 90 f4 3c fd f6 35 3e 3f f2 36 be 25 22 39 3e
       0.029853962 0.1777 -0.17865847 0.18079431
0002d0 b7 b6 34 3d 9a dd 76 bd 98 1e f9 3c b3 61 29 3b
       0.044119563 -0.06026993 0.030410096 0.0025845587
0002e0 2b a7 61 3d 31 02 ba bd d0 d5 42 be 42 4a 76 3d
       0.055091064 -0.09082449 -0.19026875 0.06012941
0002f0 52 74 5b 3c 24 5e 01 3e 39 a1 44 3d 68 52 63 3c
       0.013394432 0.12633568 0.048005316 0.013874628
000300 44 12 db 3a 17 8b 12 3e ec 24 fd bc 64 60 3d bd
       0.0016713818 0.14310871 -0.030901395 -0.046234503
000310 d8 03 a2 bd 12 f7 09 3e 1a 84 a9 3c 13 d0 14 bd
       -0.079108894 0.13473156 0.020692874 -0.036331248
000320 97 69 f6 bd e7 f8 de 3d d1 19 de bd d3 69 31 be
       -0.120318584 0.10887318 -0.10844768 -0.17325525
000330 99 f1 3a bd 38 a6 81 bd 2b 72 4f 3d c7 7d 07 be
       -0.04564056 -0.06330532 0.05064599 -0.13231574
000340 18 8e 67 bd a5 21 4a bd e1 3b 31 3e d1 a9 36 3e
       -0.056531996 -0.049348492 0.17307998 0.17838217
000350 25 e5 2d 3e 7d 36 c3 3d bf 88 27 3e e5 41 25 bd
       0.16981943 0.09531877 0.16360758 -0.040346045
000360 a5 09 2d 3e fa 2a 2d bc e2 90 43 3d 0d 5d 8f bc
       0.1689821 -0.010569328 0.047745593 -0.017500425
000370 26 67 20 be 41 ac 41 3e 88 c7 22 bd 06 63 e6 3a
       -0.15664348 0.18913366 -0.03974107 0.0017577119
000380 d3 e3 d6 3d 60 e4 f8 bd 8b 88 c1 3d 27 63 2c be
       0.10492673 -0.12152934 0.09449872 -0.16834699
000390 00 76 9a bc 19 95 32 3c 09 57 31 be ce 04 79 3c
       -0.018855095 0.010899805 -0.17318358 0.015198899
0003a0 93 bd 06 be 26 88 0b be 5a 61 1b be 0f 57 fa bd
       -0.13158254 -0.13626155 -0.15173855 -0.12223636
0003b0 19 dc 0f be 16 84 25 be 96 4b 8a bd 7f d5 08 be
       -0.14048804 -0.16163668 -0.06752698 -0.13362692
0003c0 21 cf 23 be 52 d7 23 bd 5b 11 9b bd fa 26 07 3e
       -0.15996982 -0.040000267 -0.0757167 0.13198462
0003d0 9d 1c 15 3e a6 5d a2 bd d3 d3 c2 3d 26 0f a0 bd
       0.14561696 -0.07928018 0.095130585 -0.07815389
0003e0 18 1b 27 3e b9 09 e9 3d 24 bd fa bd 4b 42 e2 3d
       0.16318929 0.113788076 -0.12243107 0.11047801
0003f0 80 92 cf bd 8a d5 2e 3d 16 8c d2 bd ba 0e 16 be
       -0.101353645 0.042684115 -0.102806255 -0.14654055

1.bias f4 [32]
000000 00 00 00 00 00 00 00 00 00 00 00 00 00 00 00 00
       0.0 0.0 0.0 0.0
000010 00 00 00 00 00 00 00 00 00 00 00 00 00 00 00 00
       0.0 0.0 0.0 0.0
000020 00 00 00 00 00 00 00 00 00 00 00 00 00 00 00 00
       0.0 0.0 0.0 0.0
000030 00 00 00 00 00 00 00 00 00 00 00 00 00 00 00 00
       0.0 0.0 0.0 0.0
000040 00 00 00 00 00 00 00 00 00 00 00 00 00 00 00 00
       0.0 0.0 0.0 0.0
000050 00 00 00 00 00 00 00 00 00 00 00 00 00 00 00 00
       0.0 0.0 0.0 0.0
000060 00 00 00 00 00 00 00 00 00 00 00 00 00 00 00 00
       0.0 0.0 0.0 0.0
000070 00 00 00 00 00 00 00 00 00 00 00 00 00 00 00 00
       0.0 0.0 0.0 0.0

1.running_mean f4 [32]
000000 00 00 00 00 00 00 00 00 00 00 00 00 00 00 00 00
       0.0 0.0 0.0 0.0
000010 00 00 00 00 00 00 00 00 00 00 00 00 00 00 00 00
       0.0 0.0 0.0 0.0
000020 00 00 00 00 00 00 00 00 00 00 00 00 00 00 00 00
       0.0 0.0 0.0 0.0
000030 00 00 00 00 00 00 00 00 00 00 00 00 00 00 00 00
       0.0 0.0 0.0 0.0
000040 00 00 00 00 00 00 00 00 00 00 00 00 00 00 00 00
       0.0 0.0 0.0 0.0
000050 00 00 00 00 00 00 00 00 00 00 00 00 00 00 00 00
       0.0 0.0 0.0 0.0
000060 00 00 00 00 00 00 00 00 00 00 00 00 00 00 00 00
       0.0 0.0 0.0 0.0
000070 00 00 00 00 00 00 00 00 00 00 00 00 00 00 00 00
       0.0 0.0 0.0 0.0

1.running_var f4 [32]
000000 00 00 80 3f 00 00 80 3f 00 00 80 3f 00 00 80 3f
       1.0 1.0 1.0 1.0
000010 00 00 80 3f 00 00 80 3f 00 00 80 3f 00 00 80 3f
       1.0 1.0 1.0 1.0
000020 00 00 80 3f 00 00 80 3f 00 00 80 3f 00 00 80 3f
       1.0 1.0 1.0 1.0
000030 00 00 80 3f 00 00 80 3f 00 00 80 3f 00 00 80 3f
       1.0 1.0 1.0 1.0
000040 00 00 80 3f 00 00 80 3f 00 00 80 3f 00 00 80 3f
       1.0 1.0 1.0 1.0
000050 00 00 80 3f 00 00 80 3f 00 00 80 3f 00 00 80 3f
       1.0 1.0 1.0 1.0
000060 00 00 80 3f 00 00 80 3f 00 00 80 3f 00 00 80 3f
       1.0 1.0 1.0 1.0
000070 00 00 80 3f 00 00 80 3f 00 00 80 3f 00 00 80 3f
       1.0 1.0 1.0 1.0

1.weight f4 [32]
000000 00 00 80 3f 00 00 80 3f 00 00 80 3f 00 00 80 3f
       1.0 1.0 1.0 1.0
000010 00 00 80 3f 00 00 80 3f 00 00 80 3f 00 00 80 3f
       1.0 1.0 1.0 1.0
000020 00 00 80 3f 00 00 80 3f 00 00 80 3f 00 00 80 3f
       1.0 1.0 1.0 1.0
000030 00 00 80 3f 00 00 80 3f 00 00 80 3f 00 00 80 3f
       1.0 1.0 1.0 1.0
000040 00 00 80 3f 00 00 80 3f 00 00 80 3f 00 00 80 3f
       1.0 1.0 1.0 1.0
000050 00 00 80 3f 00 00 80 3f 00 00 80 3f 00 00 80 3f
       1.0 1.0 1.0 1.0
000060 00 00 80 3f 00 00 80 3f 00 00 80 3f 00 00 80 3f
       1.0 1.0 1.0 1.0
000070 00 00 80 3f 00 00 80 3f 00 00 80 3f 00 00 80 3f
       1.0 1.0 1.0 1.0

5.bias f4 [2]
000000 4a 81 a4 3c d6 9d 79 bd
       0.020081181 -0.06094154

5.weight f4 [2, 32]
000000 4a 7c f5 bc c5 bc 36 ba ec d9 93 3d 01 41 6d bd
       -0.029966492 -0.0006970878 0.072193 -0.05792332
000010 4b d7 74 bd c7 33 d8 3d f4 01 9e bd e0 13 d9 bc
       -0.059775632 0.10556751 -0.07715216 -0.026498735
000020 04 65 22 bc aa 86 1a 3e ad 84 1b 3c 53 57 c2 bd
       -0.009911779 0.15090433 0.009492082 -0.09489312
000030 f8 7f 56 3c dd f0 9f 3d 68 f1 24 be 21 3a 08 3d
       0.013092034 0.07809613 -0.16107714 0.03325856
000040 89 27 c9 3c 07 fe df bd 06 d1 ab bd cf 06 93 bc
       0.024554985 -0.10937124 -0.083894774 -0.017947583
000050 0b d3 2e 3e da ad 29 be 50 ea b2 3b 0c 98 02 be
       0.17072694 -0.16570225 0.005460061 -0.12753314
000060 f2 bf 0a 3e 56 dc 14 3e 3b ed fd 3d 94 78 75 bc
       0.13549784 0.14537176 0.12398764 -0.014982361
000070 32 41 96 3c be 44 9c 3b d8 8b d4 bd 4e e3 c7 3d
       0.018341634 0.004768937 -0.103782356 0.09760152
000080 f1 f4 7d 3d 4d ce 06 be f3 0c 11 3e bb 92 be bd
       0.062001172 -0.13164635 0.14165096 -0.0930533
000090 4b cc ef 3d 4e f3 1a 3e 98 14 af bd a9 a0 19 3d
       0.11708888 0.15131876 -0.0854885 0.037506733
0000a0 38 cc 64 3d 20 6a 5c 3d 46 fe 24 3e 39 02 27 3e
       0.05585882 0.053812146 0.16112623 0.16309442
0000b0 26 13 d0 3d 89 a1 66 bd d6 ba 9f 3d d6 4e 1a 3e
       0.10159902 -0.056306396 0.07799308 0.15069136
0000c0 b7 a7 2d be 85 95 b9 3d c0 22 2a 3d c9 ae 8b 3d
       -0.1695851 0.09061722 0.041537046 0.06820447
0000d0 79 38 31 3e bf 9e 14 3e 2e b2 37 3d 51 91 29 3e
       0.17306699 0.14513682 0.04484766 0.1655934
0000e0 b0 01 09 3d 47 e8 99 3d b8 db 2b 3e 89 68 2e be
       0.033448875 0.075150065 0.16783035 -0.17032064
0000f0 80 cb 19 be 7f d5 1a be 29 e1 50 bd 12 46 52 3d
       -0.15019035 -0.15120505 -0.05099598 0.051336356
