debug_model/onnx/dummy.onnx (onnx, 124846 bytes, 4 tensors)

0.bias f4 [100]
000000 a5 06 61 bd 3a c1 44 bd 30 70 45 bd 81 e0 9a bc
       -0.054937977 -0.048035838 -0.048202693 -0.01890588
000010 df 44 1d 3d 6a f2 e6 bc 6b 4a b5 ba c0 ac 4d bd
       0.03839576 -0.028191764 -0.0013831382 -0.050213575
000020 ab da f6 3c a1 74 67 bd 41 8e 3d bd 68 d6 38 3d
       0.030133566 -0.05650771 -0.046278242 0.04512635
000030 2d 96 ac bc dc 01 17 3d a5 d6 4d bc e4 d5 25 bc
       -0.021067703 0.036867008 -0.012563382 -0.010121796
000040 25 10 f6 ba 22 46 39 3d 91 80 41 3c 34 f0 34 bc
       -0.0018773122 0.0452329 0.011810438 -0.011043597
000050 bf 36 1b 3c 4c 8b 92 3b e1 d6 46 3d 76 77 22 bd
       0.009473502 0.004472172 0.04854477 -0.039664708
000060 1d ba 66 bd 33 9c ab b9 15 96 79 bb 3d ba 45 3d
       -0.056329835 -0.0003273204 -0.003808384 0.048273314
000070 d2 2b a5 3c 6b 7a 57 bd a1 71 4a bd 9b ba 3c bc
       0.020162497 -0.05260698 -0.04942477 -0.0115191
000080 e4 97 4e 3d d8 a2 3d 3b 7c 73 10 3c f6 31 8f 3c
       0.050437823 0.0028936174 0.008816596 0.017479878
000090 4b 62 45 bd da 0e 66 3d 25 15 d7 bc 6a 17 bc 3b
       -0.048189443 0.056166507 -0.0262552 0.005740096
0000a0 94 96 ee bb 9c 7d 48 3d 6a 12 cd 3c 90 09 1d bd
       -0.007281134 0.048947915 0.025033195 -0.038339198
0000b0 01 98 ea bc 43 78 b9 bc 33 29 2d bd 04 6f 4b 3d
       -0.028636934 -0.022640353 -0.04227562 0.04966642
0000c0 a4 1b b8 3c 1c 06 d0 3c 77 b0 48 3d 89 66 ff bc
       0.022474118 0.025393538 0.048996415 -0.031176822
0000d0 b6 2a ae 3c 0f 15 5c bd 7d 81 80 bc e0 02 f4 bb
       0.0212606 -0.05373102 -0.015686745 -0.007446632
0000e0 a4 6e 2c 3d cb 10 45 3d 11 e3 18 3c 5a 3c 66 3d
       0.042097703 0.04811172 0.009331481 0.0562099
0000f0 2b e4 87 bc 07 28 ad 3b cf 9e ac 3c 73 e7 da bc
       -0.016588291 0.0052843126 0.02107182 -0.026721692
000100 64 e4 d9 bc c7 2e eb 3b f2 36 ab 3c ea 8b 1d bd
       -0.026598163 0.007177207 0.020900223 -0.03846351
000110 3f 5d 55 3d 59 9e c4 bc 53 52 44 3d 79 80 37 bd
       0.05209088 -0.024001287 0.047930073 -0.044800255
000120 20 b9 1e bd 7b e0 02 3d f3 45 99 bc 60 38 2b 3d
       -0.038750768 0.031952363 -0.018710112 0.04180181
000130 68 5d 2c bc b0 d8 0c bd cf 8a 19 3d 02 43 6b 3d
       -0.010520317 -0.034386337 0.037485894 0.05743695
000140 24 bf 67 bd 4a d1 5b 3b 27 0f 66 3d aa 34 88 bc
       -0.05657877 0.0033541494 0.056166794 -0.016626675
000150 bb a0 44 bd 5f 67 5c 3d d6 74 08 3c 54 a1 26 3d
       -0.048004847 0.05380952 0.008328637 0.0406812
000160 25 8f e4 bc 0b b7 e2 3c fb 4e d2 3c 3b b1 05 bd
       -0.027900288 0.027675172 0.025672426 -0.032639723
000170 9d 05 91 bc 93 5f 18 bd 6c 5c 30 3d dc 26 0a 3c
       -0.017702872 -0.03720052 0.04305689 0.008432116
000180 ca 9f 39 3d 5a 54 bd 3c 58 e9 47 3d e6 99 e4 3c
       0.045318402 0.023111511 0.04880652 0.027905416

0.weight f4 [100, 300]
000000 0b a3 63 3d f3 59 91 3c f9 c8 97 bc 75 6d 0c 3d
       0.05557541 0.017743086 -0.018528448 0.034284074
000010 a1 fa 68 3d e2 0b 35 bd 1c 72 b5 3c c8 4d 0d bd
       0.056879643 -0.044200785 0.022149138 -0.034498006
000020 d8 aa 5a 3b 41 df 89 3c 6b 5b 17 bd 64 91 aa bc
       0.003336599 0.016830089 -0.036952417 -0.02082128
000030 83 72 03 bb 3c 3f 60 3c f6 29 b3 bc d4 d9 5e 3c
       -0.0020057268 0.013686951 -0.021870594 0.013601739
000040 91 0b 6b bd 3d 71 b1 bc 46 58 f6 bc 4b 0e 5a bc
       -0.057384077 -0.021660442 -0.030071389 -0.013309072
000050 71 cd 68 3c f3 5f 18 bd 79 48 4c bd a5 5e ef bc
       0.014209137 -0.03720088 -0.049873803 -0.029219935
000060 05 b8 fd 3b da 89 4c 3d 17 bc 4b bc 76 97 a2 bc
       0.007742884 0.049936153 -0.012434981 -0.019847613
000070 71 cb f0 3c 06 11 89 bc bb 23 13 bd 25 0e 39 bd
       0.029393883 -0.01673175 -0.035922747 -0.045179505
000080 16 42 31 3c 04 11 b9 3b d1 34 15 bd 7c 38 0c bd
       0.010818979 0.0056477804 -0.036427323 -0.034233555
000090 05 5d ba bc 20 6a 44 3c 26 86 8b 3c 5f 18 45 bd
       -0.022749433 0.011988193 0.01703174 -0.048118945
0000a0 e6 ae 8f bc 72 cc 8a bc 0e 19 87 3c 21 76 c2 3c
       -0.017539453 -0.01694319 0.01649144 0.023737969
0000b0 04 c6 0f 3d 36 a2 f3 bc a2 3f 13 bc f3 c4 07 3b
       0.03510095 -0.029740434 -0.008987339 0.0020716756
0000c0 f2 1e e5 bc 9f e2 48 3d ab 46 20 3d e3 a5 4d bd
       -0.027968857 0.049044248 0.039129894 -0.05020703
0000d0 57 60 98 3c 4e 5a 20 3d 59 5d 85 bc 53 d1 e3 3b
       0.018600626 0.03914862 -0.016279863 0.0069524436
0000e0 53 98 30 bd 0e d9 c7 bc b3 e8 70 3c d2 ee 0e bd
       -0.043114018 -0.024395492 0.014703917 -0.034895726
0000f0 c4 0a a5 bc cd a7 e7 3a 0c c8 b5 ba 64 16 4e bd
       -0.020146735 0.001767391 -0.0013868823 -0.050314322
000100 07 01 58 bd c3 24 aa bc 61 b6 35 3d ed 10 6a 3d
       -0.052735355 -0.020769482 0.044363383 0.057145048
000110 78 c6 e4 bc de 68 40 3d e2 ba 0e 3c e1 80 af bb
       -0.027926669 0.04697501 0.0087115485 -0.0053559397
000120 5d 90 92 3c 39 79 1d 3d 94 f5 0d bd ef 48 7e 3b
       0.017891103 0.038445685 -0.03465803 0.0038800796
000130 ed 8b 4b 3d 54 ef 47 3d dc ca c0 3c a3 e4 28 bc
       0.04969399 0.048812225 0.02353423 -0.0103084175
000140 ed 8f a2 3b de e0 4e 3d de 21 69 bd d8 2e 2d 3d
       0.004961005 0.05050742 -0.056917064 0.042281
000150 a2 21 e4 bc 8e 38 50 bb c9 4b 09 bc 9d fd 8c 3c
       -0.027848069 -0.003177199 -0.008379885 0.017210776
000160 89 2e 29 3c 92 f0 d6 3c b5 65 42 3d 23 bc 16 3d
       0.010326036 0.02623776 0.047460277 0.036800515
000170 67 f5 3b 3d 60 a5 09 bd 72 a9 54 bd 37 d3 c0 bb
       0.04588833 -0.03360498 -0.05191941 -0.005884554
000180 1b 2b 1d bc 33 a0 0c 3d a4 67 89 3a e3 83 f3 3c
       -0.009592797 0.034332465 0.0010483158 0.029725974
000190 b0 f1 ab bc 93 cc 00 bd 2d a2 4f 3d ce f8 e2 3c
       -0.020989269 -0.031445097 0.050691772 0.02770653
0001a0 b5 50 fc bc 06 1e 4a 3d fe 02 e9 3c f4 c2 83 3c
       -0.030800203 0.04934504 0.02844381 0.016084172
0001b0 1d 10 d9 bb ba c6 1f bd 20 3a 29 3d 89 15 c8 bc
       -0.0066242353 -0.03900788 0.041315198 -0.024424331
0001c0 11 ae ce 3c a0 6c 0d bc 5c a0 2f bd 4d b5 55 3d
       0.025229486 -0.008631855 -0.04287754 0.052174855
0001d0 64 67 56 3c c5 ba 5c 3c 7c 20 10 bd cd 7d ab bc
       0.013086174 0.013472264 -0.03518723 -0.02093401
0001e0 57 83 43 3d 90 aa 5c 3d 2b 7d 2a bc 44 36 d3 3c
       0.047732677 0.0538736 -0.010405819 0.025782712
0001f0 e5 7a 34 3d 5e 18 01 3d a4 c0 0c 3d af c9 82 bc
       0.044062514 0.03151738 0.034363404 -0.01596531
000200 d2 2a 03 3d 97 04 42 bd 53 26 9e bc 66 9e 03 bd
       0.03202326 -0.04736766 -0.019305384 -0.032133482
000210 d0 96 b0 3c be de 31 bd 6c 82 48 3d bb ff c0 bb
       0.021556288 -0.043425314 0.048952505 -0.0058898604
000220 3f 95 c7 bc 7c 80 21 3c 10 0c 3d bd c0 34 2c 3d
       -0.024363158 0.009857293 -0.04615408 0.042042494
000230 12 7e 1d 3d 93 6b 0c bd 9a 8d 63 bd 40 21 31 bd
       0.03845031 -0.03428228 -0.055554964 -0.0432446
000240 9d 6e c0 bc ad 99 af bc 88 82 8e 3a 9c 4d 23 bd
       -0.023490245 -0.021435583 0.0010872642 -0.039868936
000250 a7 41 59 3d 3c b0 dc bc 4e 52 d0 bb 16 62 dd bb
       0.053041127 -0.026939504 -0.0063574677 -0.0067560775
000260 e9 b8 4f bd 9f 08 b7 bc b1 b4 30 3d bd c1 13 bd
       -0.050713453 -0.022342978 0.04314107 -0.036073435
000270 c1 7a 62 bc b9 f3 c5 3c 4d be 9e ba 89 0c ac 3c
       -0.013823212 0.024164068 -0.0012111157 0.021002071
000280 61 e2 8b 3b be 0a 5f 3d 7c d9 bf 3c 53 32 2c 3d
       0.00426893 0.054453604 0.023419134 0.04204018
000290 22 d7 5f 3d 23 a6 21 bd c4 35 4c bc db e2 43 3c
       0.054648526 -0.03946508 -0.012463991 0.011955942
0002a0 83 13 9c bc 7b 74 39 3d fc 79 39 bd a4 2d 4a 3d
       -0.019052273 0.0452771 -0.04528235 0.049359933
0002b0 6f 3b 49 3d 71 1e 11 bd bf f5 a0 bc 9b e6 19 3d
       0.049128946 -0.03542942 -0.01964843 0.03757344
0002c0 3f 1f 34 3d 96 6f 0a 3d e6 c8 e7 3c 31 b8 6a 3c
       0.04397511 0.033797823 0.028294038 0.014326141
0002d0 2b f7 69 3d 16 28 21 bd b4 82 4b 3a e5 39 8c 3c
       0.057120483 -0.03934487 0.0007763312 0.01711745
0002e0 63 e3 7a 3c eb 92 ce bc ca db 11 bd 2c f0 27 3d
       0.015313002 -0.02521654 -0.035609998 0.04100053
0002f0 72 63 05 bd 8f 30 a3 bc e2 8b d0 3c f9 d3 2a 3b
       -0.03256554 -0.019920615 0.025457326 0.0026066287
000300 8b 2a 20 3d b7 e8 56 3c 07 85 22 bd b8 a1 56 3d
       0.039103072 0.013117007 -0.039677646 0.05240032
000310 2a 7b 86 3a 18 49 42 bd 8a 53 b0 bc 45 a4 7f 3c
       0.0010260094 -0.04743299 -0.02152421 0.01560313
000320 82 11 ef 3c 9d 05 07 bb 57 65 10 3c 75 16 37 3d
       0.029183153 -0.002060271 0.008813224 0.04469915
000330 42 30 32 3d 55 b4 97 3c a8 bc 29 3d 60 d8 45 bd
       0.043503053 0.018518606 0.041439682 -0.048302054
000340 30 99 9a 3b 48 78 52 3d 53 35 e3 3c 2f 66 a7 3c
       0.0047179684 0.05138424 0.027735388 0.020434467
000350 9b c3 b4 bc 0a 4a 42 3d 05 60 31 3b c0 5a 54 3c
       -0.022065928 0.04743389 0.0027065289 0.01296109
000360 37 9b ba bc 47 92 6d 3c ea 4e 02 3d 92 9e 47 bd
       -0.02277909 0.014500207 0.03181354 -0.04873521
000370 35 b2 56 bd 6f d5 5b bd 85 f6 e8 bc e2 b8 45 3d
       -0.052416045 -0.053670343 -0.028437862 0.04827202
000380 ff c5 98 3c fa 0d 34 bd 0d 9a c3 bc 35 ba d7 bb
       0.0186491 -0.04395864 -0.023877168 -0.006583477
000390 5e ca 0a 3b d6 96 64 bb 50 34 03 3d c7 f8 66 3d
       0.002117775 -0.0034879944 0.03203231 0.056389596
0003a0 3c f9 89 bc 2f 5b 7c 3c c0 77 47 bd 81 fe 5b 3d
       -0.016842477 0.015402599 -0.048698187 0.05370951
0003b0 b9 87 60 bd e5 98 4f 3d eb 5d 87 3c 56 fe 52 3d
       -0.054816935 0.05068292 0.016524276 0.051512085
0003c0 96 a9 37 bc 27 10 5b bd f3 df 53 bd f3 a9 ac 3c
       -0.011209866 -0.0534822 -0.051727246 0.021077132
0003d0 86 b8 d0 bc 67 f5 1b bd 10 bc e3 bc 38 0d ff 3c
       -0.025478613 -0.03807583 -0.027799636 0.031134233
0003e0 50 f9 82 bc 27 b4 1b bd 26 90 11 3c 7a 04 1f bd
       -0.015988022 -0.038013604 0.008884465 -0.03882263
0003f0 16 b6 34 bd 72 2d 38 bd 28 c7 eb 3c 59 ab 23 bb
       -0.044118963 -0.044965215 0.028781489 -0.0024973957

2.bias f4 [10]
000000 8d 28 00 bd fd a5 44 3d 67 be ad 3b 17 ff 83 bd
       -0.031288672 0.04800986 0.0053022387 -0.06445139
000010 00 08 fe 39 43 39 6b 3d aa 03 07 bd 53 df 31 3d
       0.00048452616 0.057427656 -0.03296248 0.04342587
000020 9d 0a 0d bd 33 51 c3 bd
       -0.03443395 -0.09536972

2.weight f4 [10, 100]
000000 8b f6 a1 3d 20 5e c9 bc 8d 3b c0 bc b3 ec 38 bd
       0.079083525 -0.024581015 -0.023465896 -0.04514761
000010 40 61 14 3c ba df 58 3d 9a ed 56 3c a7 b5 a8 bd
       0.009056389 0.052947737 0.013118172 -0.082377724
000020 03 e1 0d 3d 2d e2 3a 3d 7a 37 af 3c 15 65 bd 3d
       0.034638416 0.045625854 0.021388758 0.092477955
000030 e7 de a1 bd 43 13 02 3d 2b 38 a4 3d a5 33 b1 3d
       -0.079038434 0.03175665 0.08018526 0.086524285
000040 1a 99 23 3d 1a fa 44 bd 8d bf 13 bd 53 4f f3 3c
       0.03994093 -0.048090078 -0.03607135 0.02970091
000050 60 4c ae bc d5 8c 9c bd 5a f9 7b bd 2d a4 c0 3d
       -0.021276653 -0.07644049 -0.061517097 0.09406314
000060 95 51 80 3d 10 eb 06 bd 1a 0b 0d bc 47 fd c8 3d
       0.062655605 -0.032939017 -0.008608604 0.09813934
000070 2a 19 55 3d 78 75 c3 3d 22 c1 bf 3d dd e5 45 3d
       0.05202595 0.0954389 0.09363009 0.048314918
000080 4d 04 b7 bd c3 08 4f bd 7a 25 81 3d aa 53 00 bd
       -0.08936367 -0.050545465 0.06305976 -0.03132979
000090 a7 8f 60 bc 7a 1d 92 3d e7 09 22 bc 00 ad c2 3c
       -0.013706124 0.071345285 -0.009890056 0.023764133
0000a0 00 ad ba 3c 67 a5 7c 3c 53 91 fc bc ad ea b7 3c
       0.022787571 0.015420294 -0.030831015 0.02245077
0000b0 f0 36 5d 3d fa ed 0f bd fa a8 b9 bd f3 af 66 bd
       0.05400747 -0.03513906 -0.09065433 -0.056320142
0000c0 fa 67 81 bd c8 63 a2 bd ab f3 94 bd e0 36 33 bd
       -0.0631866 -0.07929188 -0.072730385 -0.043753505
0000d0 fd 1c be 3d 83 57 05 3d 33 11 83 3a 80 3f 80 bd
       0.09282873 0.03255416 0.0009999633 -0.06262112
0000e0 80 f6 94 bd 4d 34 d1 bc a0 96 01 3d fa 36 33 bd
       -0.07273579 -0.025537634 0.031637788 -0.0437536
0000f0 77 7a 94 3d 27 f2 4b 3d bd d1 63 3d 77 36 8b 3d
       0.07249921 0.04979148 0.055619944 0.06797498
000100 d3 e5 d1 bc ea 35 6e bd cd f9 9c bc 27 9f 3d bc
       -0.025622284 -0.058156885 -0.019162083 -0.011573589
000110 f0 3b 4e 3d 35 66 90 3d 5a 58 e7 3c fa e0 36 bd
       0.05035013 0.070507444 0.028240371 -0.044648148
000120 97 8c 4b 3d a7 4e 57 bd 48 c1 c3 bd dd 88 88 bd
       0.049694624 -0.052565243 -0.0955835 -0.066667296
000130 5a 45 72 3c 43 55 c5 3d a5 09 8c 3d 27 7b 10 bd
       0.0147870425 0.09635403 0.06837777 -0.035273697
000140 fa 1d a4 bc 20 8d f0 3c 60 51 8d bd 2d 94 8b 3c
       -0.020033825 0.029364169 -0.06900287 0.01703843
000150 87 bc 98 3d e7 90 d5 3c 7a ae 6c bd 27 1a 53 3d
       0.07457834 0.026070071 -0.05778358 0.051538613
000160 f8 be 8b 3d fb 20 b6 3d ea ba 8d bd 27 a5 01 bd
       0.06823534 0.08893009 -0.06920417 -0.031651642
000170 33 55 cd 3a c0 71 3e 3c 60 6c 56 3d d3 85 5c 3d
       0.001566565 0.0116238 0.05234945 0.053838562
000180 87 60 6e bd f3 5e 71 3c 73 d7 29 3d 9d 71 84 bd
       -0.058197524 0.01473211 0.041465234 -0.064669825
000190 53 9f a9 3d 3b ba a9 bd 9b 60 b5 3d 4d 5c 4c bc
       0.08282342 -0.08287474 0.08856317 -0.012473178
0001a0 07 e6 9f bc db 86 a0 3d 07 be 1a 3d d3 52 1b bd
       -0.019518865 0.07838222 0.03777888 -0.037920784
0001b0 73 06 0b bd e7 01 55 bd fd 1e 18 bd f3 16 b4 3c
       -0.033941697 -0.052003767 -0.037138928 0.0219836
0001c0 e7 5d 40 bc a3 32 6c bd b3 24 b0 bd 8d 0f 0b 3d
       -0.011741138 -0.05766548 -0.0860075 0.033950377
0001d0 ed bc 7d bd 07 d3 0f 3d 7a de 31 3d 27 be 49 bd
       -0.06194775 0.03511336 0.04342506 -0.04925361
0001e0 33 33 bd b8 33 11 43 3c ef 56 c9 bd e7 03 76 bc
       -9.021759e-05 0.011905956 -0.098310344 -0.015015579
0001f0 7a 9b 68 bd 50 79 42 3d b3 f9 ee bc ef 89 86 bd
       -0.0567889 0.047478974 -0.0291718 -0.065692775
000200 37 30 23 bd fa ba 22 bd 07 d7 b3 3d 5d 87 11 bd
       -0.039840903 -0.039729096 0.087812476 -0.035529483
000210 9a c5 db 3c c5 b5 b6 bd b3 d1 a0 3d ed 33 ac 3d
       0.026827622 -0.089213885 0.07852497 0.084083416
000220 f0 52 11 3d 1f 6d bc 3d 37 6d 46 3d 4d 72 eb 3c
       0.035479486 0.09200501 0.048444 0.028741026
000230 3a 2b 95 3c dd cc 4a 3d 7d 1c 51 bd 50 73 00 3d
       0.018209089 0.04951178 -0.05105256 0.03135997
000240 a3 20 80 3d 7b 24 8b bd 6a ea a9 3d b3 97 d2 bc
       0.06256225 -0.067940675 0.08296664 -0.025707101
000250 bb 7d c6 bd 5a 4f 8c bd 8d 2c 63 3c e0 cd 0d bd
       -0.0969195 -0.068510726 0.013865602 -0.034620166
000260 5a b2 7f 3d ad e3 2e bd 55 06 9a 3d 87 ae 09 3d
       0.06242595 -0.042697597 0.07520739 0.033613708
000270 aa 4f 64 3d 93 cf b3 3c a2 f0 b5 bd 0d 53 82 3c
       0.055740036 0.021949565 -0.08883788 0.015908742
000280 a7 f8 5e bd 6a 81 c7 3d 33 3b a7 3d 3a 48 72 3d
       -0.054436352 0.09741481 0.08165588 0.059150912
000290 0b 4f 8b bd ca 6a 6b 3d 50 04 14 bd 7a 02 22 bd
       -0.068021856 0.05747489 -0.036136925 -0.039553143
0002a0 40 6f 0d bc fa 30 b1 bd ad 4d a6 3c a2 1e cb 3d
       -0.008632481 -0.0865192 0.02030071 0.09917952
0002b0 13 77 21 3d f8 23 8a 3d cb 6b 92 3d 3b ad a1 bd
       0.0394202 0.06745142 0.07149466 -0.07894369
0002c0 e7 e7 80 3d 9f 56 b8 3d 60 9b b7 3c b5 42 b4 3d
       0.06294232 0.09000897 0.022412956 0.08801786
0002d0 67 59 2d 3c 93 5a 8c bd e5 e6 c1 3d 0d 20 fb 3c
       0.010580397 -0.06853213 0.09467868 0.030654931
0002e0 80 a3 ab bc ba a8 05 bd dd e9 c7 bd 80 05 70 bd
       -0.020951986 -0.032631613 -0.09761403 -0.058598995
0002f0 6b 8e a8 3d cd 6b ef bc 5a 4f af bc 95 df 98 3d
       0.08230289 -0.029226208 -0.021400142 0.0746452
000300 3a 49 e9 bc da 2a 30 3c 33 a4 16 bd 2d 56 8b 3d
       -0.0284773 0.010752404 -0.036777686 0.06803546
000310 9d 6d 85 3d 27 28 53 bd 9a 19 7c b8 38 e8 8b bd
       0.06515048 -0.051551964 -6.0105325e-05 -0.068314016
000320 cd 58 6f 3d 7f 18 ca 3d 23 20 36 bd 12 96 8e 3d
       0.058434296 0.098679535 -0.04446424 0.069622174
000330 27 3c 86 bd 75 d9 bd bd 50 02 4d bd ad 40 b5 bc
       -0.06554442 -0.09269992 -0.050051033 -0.022125566
000340 08 7b a4 3d 9b 33 aa 3d 7b 9c b5 bd ed 22 ba bd
       0.08031279 0.08310624 -0.08867737 -0.09088693
000350 8d 43 12 3d 03 ba 4d bd 80 5b 41 3d 47 b1 8f 3d
       0.035708953 -0.050226223 0.0472064 0.07016235
000360 c3 95 41 bd 33 81 b0 3d 60 ad e0 bc f7 eb b9 3d
       -0.047261965 0.08618393 -0.027426422 0.0907821
000370 33 7e 52 3b 20 0e c5 3c 3d 88 5b 3d 73 4f 9e 3d
       0.0032118678 0.024054587 0.053596724 0.077299975
000380 40 00 bb 3c 33 13 62 3c b3 88 7a 3c a3 f0 24 3d
       0.022827268 0.013798523 0.015291381 0.04026855
000390 b0 28 5c 3d ba ac 9d 3c 80 c2 37 3d 5a 05 bf 3d
       0.05374974 0.019247402 0.044863224 0.093271926
0003a0 53 db 3d 3d 52 66 8f bd 4d 1c b6 3c 60 7c 5e bd
       0.046351742 -0.07001938 0.022230292 -0.054317832
0003b0 8a ac 65 bd dd 42 4b 3d 33 b2 40 bc 47 4f 23 3d
       -0.05607275 0.049624313 -0.011761236 0.039870527
0003c0 62 92 a7 3d 7f db 91 3d 32 8b a7 3d dd 0d 81 3d
       0.08182217 0.07121944 0.08180846 0.06301472
0003d0 d7 b9 c5 bd ea 7e ab 3d 6d ca bd bc e0 21 86 bc
       -0.09654587 0.08373816 -0.023167813 -0.016373575
0003e0 aa f8 9e bd b3 af 38 3c ad 6d a3 3d ad 36 ee 3c
       -0.07762273 0.011272359 0.07979903 0.029078806
0003f0 9a fa 6f 3b ca 2e 64 3d 62 c7 82 3d 73 20 3a bd
       0.0036617876 0.055708684 0.063856855 -0.045441102
